app/src/main/assets/1.tflite (tflite, 83304 bytes, 5 tensors)

sequential/dense/BiasAdd/ReadVariableOp/resource f4 [7]
00000000: 3428 db3e 8a52 7f3e 18b2 9c3e 58c7 c13e
00000010: 8285 813e 098d af3e 631b d83e
0.4280411 0.2493383 0.30604625 0.378474 0.2529717 0.3428729 0.42208394

sequential/dense_1/BiasAdd/ReadVariableOp/resource f4 [2]
00000000: 5cd2 dc3d 58d2 dcbd
0.1078231 -0.107823074

sequential/embedding/embedding_lookup/11036 f4 [2003, 7]
00000000: c3a5 cebd 7677 38be b6f5 a0bd 899e 7c3e
00000010: 36ef 8e3d 0285 193e 0b99 af3d 71ec b2bd
00000020: cf10 55be 672a 933d 3d6a ac3e 2a71 39be
00000030: 7260 883e 9b3d a0bc 7ac1 363d cedf e6bb
00000040: d745 8e3d d705 1e3d 6a7b bbbc 72bd 273d
00000050: 4e17 83bd fc48 3d3e 5aca ca3d 40a5 7b3e
00000060: ec9e 63bd 041a 91be bcf3 a23e 9c0d 4bbe
00000070: 0a79 203f 4ef8 193f f38d 2d3f 8344 09bf
00000080: df74 34bf 03c5 443f e78e 29bf 6e77 393f
00000090: bd98 3a3f 0863 4c3f 236e 34bf 9c08 59bf
000000a0: 0d06 603f 271a 4abf 4c8a eb3e 2c8a ed3e
000000b0: 27e5 f03e f59c d2be e1a7 05bf fcba 0f3f
000000c0: 505a fabe a69e 0abe e7f3 2cbe c4b5 d5bd
000000d0: 98bf 743e 17fa aa3d 65fa 51bd d3bf 013e
000000e0: 7cee d23e 0e9a c23e 5332 c93e f184 adbe
000000f0: 03bf d1be 5724 cd3e 0142 ddbe 7ca7 753e
00000100: 6114 473e 4683 733e 47fe aebc d2ef 83be
00000110: 7804 753e cc14 89be 790d cc3d da65 153d
00000120: 9a96 233e a004 ba3b 5c52 2cbe 736c 0e3e
00000130: 3f45 18be b43d 4bbe 5e6b 9bbe d956 22be
00000140: 6fbc 923e 8300 f03d 8954 9cbd ee25 193e
00000150: a134 d03b d4ff d5bd 4488 ee3c 58db 013e
00000160: 8a86 debd 3363 9f3d 7fbd 02bd b374 07bb
00000170: 4726 6bbe 98c2 a33c a307 a13e e874 29be
00000180: 5009 3b3e adec a8bd dcf3 1f3e e634 053e
00000190: 2d24 2d3e 3c94 debd 93a2 52be 1f2d 393e
000001a0: fe09 48be c935 eb3d 998e 3a3c 092e b63d
000001b0: 5275 113c 5992 3fbe ab6e 3a3e 7dbe 3ebe
000001c0: aef6 8bbb de94 b9bd 9a80 1dbc 5aa9 f53d
000001d0: 26f0 00bd 0bf1 733c 2672 6dbd ba35 2ebd
000001e0: a646 d7bd 91ec cebd 7206 323e 7862 463d
000001f0: 1f68 fc3c a8b6 af3d b795 27be 20dc 37be
00000200: 54eb d8bd 9731 303e b140 a23d 9e7f a5bd
00000210: e360 243e 417f 5abe a4b7 8fbe fc83 1fbe
00000220: 9620 ac3e abbd e53d 2553 babd 65ec 1a3e
00000230: 27d7 293e 5b14 b03d 1573 523e 594f c0bd
00000240: c90a 16be 032e 293e 24b6 39be 81c7 89be
00000250: fc04 b0be 99c7 98be 1501 bf3e 78e8 513e
00000260: 8a57 19be c46d 853e 95db e33e 5475 cc3e
00000270: c359 013f b31d d6be abf0 e1be ac8e 023f
00000280: c61a fcbe 6443 b83e b449 9f3e b11f c83e
00000290: b4b7 89be 1237 babe 3555 ac3e 53f9 c9be
000002a0: bd9e 093e a11f 1e3e faa5 2e3e e9a7 bbbd
000002b0: 8358 09be 5200 3e3e 7689 03be 159b 0e3f
000002c0: c77c e13e 0e59 0b3f a2dd b4be 3474 0fbf
000002d0: 5715 0e3f 9533 16bf f486 b0be dce9 c7be
000002e0: ab55 bebe 8b83 ce3e 8be9 883e e852 6dbe
000002f0: 0636 8d3e 3bf1 9bbd 3130 b9bd bbef 91bd
00000300: 2a00 0d3e 7bee b53d 831c b1bd 10fd 5c3d
00000310: 7a18 cabd 2c1f 4abe 1d65 8ebd 9734 763e
00000320: 027e 6d3d 9bdc a5bd 9706 763d e6bf 103f
00000330: f51e 023f 5ada 073f b1a4 b3be d768 0fbf
00000340: 6f5c 073f f196 0ebf 4e15 1c3e ecc9 833d
00000350: 6cb3 3d3e da07 823b 7b90 8cbe ad52 483e
00000360: 8288 69be 4da4 703e 22a6 8e3e 62b5 a93e
00000370: e2da 4dbe fbc6 94be e4c5 ad3e d939 afbe
00000380: 3ea8 263e bbf3 f83d 17e6 173e 0e1a 30bd
00000390: ac4e f7bd 5e3c 2f3e 2531 25be 1597 103e
000003a0: 7f4d 8f3d f6e5 373e 2049 8fbc 1831 2cbe
000003b0: 19c0 253e 52f9 11be 9831 ee3e ad02 e33e
000003c0: e4ce f03e b643 a7be 7001 03bf 7803 093f
000003d0: 0a43 eabe f33d 283e d2d7 b93d 3fe4 1d3e
000003e0: 5f1a 1ebd 1543 f7bd 145e b63d ae46 42be
000003f0: 980c 01be 7f70 e1bd fb92 d8bd 8502 423e
-0.1009021 -0.1801432 -0.07859366 0.24669851 0.069792196 0.14992145 0.085741125 -0.08736504
-0.20807193 0.07185822 0.33674803 -0.18109575 0.26636082 -0.019560626 0.044618107 -0.0070457226
0.06946915 0.038579788 -0.022885997 0.040952154 -0.064009294 0.18484873 0.09901877 0.24574757
-0.05557148 -0.2834016 0.3182658 -0.1982941 0.6268469 0.6014451 0.6779472 -0.53620166
-0.7049083 0.76863116 -0.66233677 0.7244786 0.7288931 0.7983861 -0.70480555 -0.8477876
0.8750923 -0.78946155 0.4600395 0.4639448 0.4704983 -0.41135374 -0.5220929 0.5614469
-0.48897028 -0.13537082 -0.16889916 -0.1043506 0.23901212 0.08348482 -0.051264185 0.12670831
0.41197574 0.3800816 0.39296207 -0.3389049 -0.40966043 0.40066788 -0.4321442 0.23989671
0.19441368 0.23780546 -0.021361483 -0.25768906 0.23927486 -0.2677368 0.09963507 0.036474086
0.15975419 0.005676821 -0.16828293 0.13908558 -0.14870165 -0.19847757 -0.30355352 -0.15853442
0.28659388 0.117188476 -0.07633311 0.14955875 0.00635393 -0.10449186 0.02911771 0.12681329
-0.10865505 0.077825926 -0.031919 -0.0020668923 -0.2296382 0.01999025 0.3145114 -0.16548502
0.18265271 -0.08248267 0.15620369 0.1300846 0.16908331 -0.10868117 -0.2056983 0.18083619
-0.19535062 0.11484868 0.011386537 0.08895499 0.008878069 -0.18708171 0.18206279 -0.18627353
-0.00427135 -0.09061597 -0.0096131805 0.11995192 -0.031479023 0.014889012 -0.05797019 -0.042531706
-0.10511522 -0.10103715 0.17385271 0.04843375 0.030811368 0.08579761 -0.16365705 -0.17955065
-0.1059176 0.17206417 0.07922495 -0.08080982 0.16052584 -0.21337606 -0.28069794 -0.15577692
0.3361861 0.11217817 -0.0909789 0.1512924 0.1658598 0.085976325 0.20551713 -0.09390134
-0.14652552 0.16521458 -0.18135887 -0.26910022 -0.34378803 -0.2983978 0.37305513 0.20498836
-0.149748 0.26060307 0.44503465 0.39933264 0.5052759 -0.41819534 -0.44128928 0.5099895
-0.49239177 0.35988915 0.3111092 0.3908668 -0.26897967 -0.3637014 0.33658758 -0.39448032
0.1343946 0.15441753 0.17055503 -0.09162886 -0.13412671 0.1855481 -0.12845406 0.55705386
0.4404051 0.5443276 -0.35325342 -0.56036687 0.5550131 -0.5867246 -0.3447796 -0.39045608
-0.37174734 0.40334734 0.2674068 -0.23176157 0.2758028 -0.076143704 -0.09042395 -0.07125803
0.13769594 0.08883377 -0.08648016 0.053952277 -0.0986795 -0.19738454 -0.069528796 0.24043499
0.0579815 -0.08098718 0.06006488 0.56542814 0.50828487 0.53067553 -0.35086587 -0.5601935
0.5287542 -0.5569907 0.15242502 0.06434998 0.18525475 0.003968221 -0.2745398 0.19562788
-0.2280598 0.23500176 0.27861124 0.33146197 -0.20103028 -0.2905806 0.3394004 -0.34223822
0.16275117 0.12155863 0.14833866 -0.042993598 -0.12075552 0.17112872 -0.16132028 0.14120133
0.06997203 0.17958817 -0.017490923 -0.16815603 0.1618656 -0.14255264 0.46522212 0.4433798
0.47032845 -0.32668847 -0.5117407 0.5352092 -0.45754272 0.16429882 0.090743676 0.154191
-0.03859937 -0.12073342 0.08904663 -0.18972275 -0.1260246 -0.11007785 -0.10574909 0.18946274

sequential/dense/MatMul f4 [7, 7]
00000000: e176 a63f e570 393f e644 a03e a72c 34bf
00000010: 711f a8bf e729 9b3f a182 a7bf 2384 efbe
00000020: 18b9 f1be 24a8 fcbe 0716 733f a51c 5f3f
00000030: 0287 2f3e 887a e53e 3f93 2d3f 4d81 263e
00000040: 7019 aa3f 57c3 d1be c56b bcbf 64d4 9a3f
00000050: 549f 7dbf 1475 3fbf c17b 94bf 8018 2ebf
00000060: ea57 c03e b82e ae3f 0896 83be b077 203f
00000070: 034f 87bf 72f9 5ebf a359 2dbf dc6d ff3e
00000080: 1096 ae3e f7d6 53bf dd68 283f 87cb 30bf
00000090: 9ed3 85bf 1976 40bf 4312 a23f 2473 a63e
000000a0: a846 ccbd 3576 853f 1d4e 9e3f 992b 973f
000000b0: de60 983f 7419 263e 7e4c 9dbf 7255 6d3f
000000c0: 0da6 8dbf
1.3005029 0.7243789 0.31302565 -0.70380634 -1.3134595 1.2122163 -1.308674 -0.467805
-0.47211528 -0.4934703 0.94955486 0.87153083 0.17141345 0.44820046 0.67802805 0.16260262
1.3289013 -0.40969345 -1.4720389 1.2096066 -0.9907124 -0.7478802 -1.1600267 -0.68006134
0.37567073 1.3608007 -0.25700402 0.6268263 -1.0570987 -0.87099373 -0.677149 0.49888504
0.34098864 -0.82749885 0.6578501 -0.6906056 -1.0455205 -0.751802 1.2661823 0.3250972
-0.09974414 1.0426699 1.2367588 1.181018 1.1904562 0.16220647 -1.2288969 0.92708504
-1.10663

sequential/dense_1/MatMul f4 [2, 7]
00000000: e723 12bf 1d9f 933f a270 d6be 7c81 7f3f
00000010: b994 9c3f 2b56 8e3f 31c0 3cbf 2697 6b3f
00000020: 5ceb a23b dd8e b43f d2a5 1fbf dc58 9ebf
00000030: 147e a4be 2189 4c3f
-0.5708603 1.1532933 -0.41882807 0.9980695 1.2232887 1.1120046 -0.7373076 0.9202751
0.0049719047 1.4106098 -0.62362397 -1.2370868 -0.3212744 0.7989674
